mnist/part2-mnist/mnist_model_fully_connected.pt (torch_old, 921701 bytes, 8 tensors)

weight f4 [32, 1, 3, 3]
0	0x3e929b6e	0.28634208
1	0xbd212957	-0.039346065
2	0xbf5cf425	-0.86310035
3	0x3e370420	0.17872667
4	0x3f6e021f	0.92971987
5	0x3e62bd3b	0.22142498
6	0xbf25bf04	-0.6474459
7	0x3e9a5482	0.301426
8	0x3d1882bc	0.037234053
9	0xbef6a3eb	-0.48171934
10	0x3e897d17	0.26853248
11	0x3e22cb04	0.15897757
12	0xbeaa267c	-0.33232486
13	0x3deea331	0.1165222
14	0x3eb3f5a3	0.35148343
15	0xbec24bcc	-0.37948453
16	0x3e815eb0	0.25267553
17	0x3edfd670	0.4371829
18	0xbe6ee3de	-0.23329112
19	0xbdef72d8	-0.116918266
20	0xbe4c4a8e	-0.19950315
21	0xbed50e66	-0.41612548
22	0xbea72864	-0.32648003
23	0xba1e3e9e	-0.00060365524
24	0xbeadcddf	-0.3394613
25	0x3e8913b0	0.26772833
26	0x3ec907e4	0.39263833
27	0xbe3d77c4	-0.18502718
28	0xbeaf380f	-0.34222457
29	0x3d050171	0.032472078
30	0x3bfe057d	0.007752119
31	0x3e0391fe	0.1284866
32	0x3deb0251	0.11475051
33	0xbe9c66a3	-0.30547056
34	0x3c2026c1	0.009774865
35	0x3eb93d34	0.36179507
36	0x3e7c46e1	0.24636413
37	0x3ee2cb74	0.44295847
38	0xbddd8774	-0.10816851
39	0x3cfde3eb	0.030992469
40	0xbdb3413a	-0.08752675
41	0xbf1bc445	-0.6084636
42	0x3eccb4a6	0.39981574
43	0xbd43dd6a	-0.04781858
44	0x3d1a4617	0.0376645
45	0x3c8743d5	0.016511837
46	0xbef1f45e	-0.4725675
47	0xbe7f5bee	-0.24937412
48	0x3e924a6a	0.28572398
49	0xbf1d66cf	-0.61485
50	0xbf01e94d	-0.50746614
51	0x3f4007c1	0.7501183
52	0x3f168e68	0.58811045
53	0x3e983097	0.2972457
54	0xbe3ed551	-0.18636061
55	0xbf2a6872	-0.6656562
56	0xbedf9bad	-0.4367346
57	0xbecfab0a	-0.4056018
58	0x3d2205a8	0.039556175
59	0x3f1e5bc4	0.61858773
60	0x3f1c5835	0.61072093
61	0x3f08ae81	0.5339127
62	0xbe834c94	-0.25644362
63	0x3df14300	0.11780357
64	0xbecce54e	-0.40018696
65	0xbe46e5e9	-0.19423641
66	0x3eaeef38	0.34166884
67	0xbe44a3b1	-0.19203068
68	0x3dd337fb	0.10313412
69	0x3e9a5711	0.3014455
70	0xbd9189b2	-0.071063414
71	0x3dbe2625	0.09284619
72	0x3ed95198	0.42445064
73	0xbeba0a75	-0.36336103
74	0xbf44cf54	-0.7687886
75	0x3e96429b	0.2934769
76	0x3e9f2aae	0.3108725
77	0xbd6abd19	-0.057309244
78	0xbd2416b4	-0.040060714
79	0x3eab8950	0.335032
80	0x3e6e635c	0.2328009
81	0xbe604325	-0.21900614
82	0x3e18bd2b	0.14915912
83	0xbe9609b8	-0.2930429
84	0x3e43d8f4	0.1912573
85	0x3d256ccb	0.040386956
86	0xbf21ac7f	-0.63153833
87	0x3ef2a5ad	0.47392026
88	0x3ef0e260	0.4704771
89	0xbf0783a8	-0.52935266
90	0xbd7fe91a	-0.062478162
91	0x3e072f86	0.13201723
92	0xbd6ef671	-0.058340494
93	0xbd6baece	-0.057539754
94	0xbe665bd1	-0.22495963
95	0x3e697ffc	0.22802728
96	0xbea02cf9	-0.3128431
97	0x3e87a33d	0.26491728
98	0xbd4a782a	-0.049431004
99	0xbc7abb03	-0.015303376
100	0xbed71529	-0.4200833
101	0xbe843570	-0.2582202
102	0xbf04dd63	-0.5190031
103	0xbde20705	-0.11036495
104	0xbea4a143	-0.32154283
105	0xbec42f7f	-0.38317487
106	0xbe18636c	-0.14881676
107	0xbcfff210	-0.031243354
108	0xbe18b524	-0.1491285
109	0xbe5203db	-0.20509283
110	0xbdab770d	-0.083723165
111	0xbe89330f	-0.26796767
112	0xbeb5fb4b	-0.35543284
113	0xbe90df9a	-0.28295594
114	0x3e8c3a27	0.27388117
115	0x3dcc4359	0.09973783
116	0xbe9efa12	-0.31050164
117	0x3e712224	0.2354818
118	0xbd9a1f3c	-0.07525489
119	0xbf0580c3	-0.521496
120	0xbe476489	-0.19471945
121	0xbe24cea0	-0.16094446
122	0xbe8d08e9	-0.2754586
123	0x3ee441a2	0.44581324
124	0x3e249836	0.16073689
125	0x3f02a894	0.5103848
126	0xbea75cc4	-0.32687962
127	0xbe7a2f30	-0.24432063
128	0x3ddd1dd1	0.10796703
129	0x3f0ca467	0.5493836
130	0x3f0ed960	0.5580044
131	0x3ee4a7cc	0.4465927
132	0xbe816f66	-0.25280303
133	0xbeae92ad	-0.3409628
134	0xbf1217ee	-0.57067764
135	0xbee0719d	-0.4383668
136	0xbf1c762d	-0.6111782
137	0xbef141c5	-0.4712049
138	0xbe11489d	-0.14187856
139	0x3e291a87	0.16514026
140	0x3e60f079	0.21966733
141	0xbd18e388	-0.037326366
142	0x3ecf86bf	0.4053249
143	0x3e63675b	0.22207396
144	0xbf0f7835	-0.56042796
145	0x3e5929c2	0.21207336
146	0x3efb87d4	0.49127066
147	0xbf38a430	-0.7212553
148	0x3e77ffb4	0.24218637
149	0x3ed969bf	0.4246349
150	0xbef7f0d0	-0.48425913
151	0x3e15f9f4	0.14646131
152	0x3d304eb0	0.043043792
153	0xbf3e13bb	-0.74248856
154	0x3ee96668	0.45585942
155	0x3f117663	0.5682127
156	0xbd7d49ef	-0.061838087
157	0x3f828cb8	1.0199194
158	0xbec2c99a	-0.38044435
159	0x3f0fd550	0.56184864
160	0x3ec4ab18	0.38411784
161	0xbf5a50e9	-0.8527971
162	0x3f58cf0e	0.8469094
163	0x3ee7daa9	0.45284012
164	0x3f0da53f	0.5533027
165	0xbe559deb	-0.20861022
166	0x3eabb966	0.33539885
167	0xbdf71336	-0.12064211
168	0xbf4ab8b1	-0.79188067
169	0xbf8725c2	-1.0558398
170	0xbe6541b3	-0.22388344
171	0x3df93316	0.12167947
172	0x3cb55ce5	0.022139022
173	0xbc00daa9	-0.007864633
174	0xbe5e8beb	-0.21733062
175	0xbe1c884b	-0.15286367
176	0xbea3100d	-0.31848183
177	0xbe89b506	-0.26895922
178	0xbe85b1a5	-0.26112095
179	0x3e1fdb5b	0.15611021
180	0x3f21fdd2	0.63277924
181	0x3f28b8a3	0.65906733
182	0xbe9cb97b	-0.3061026
183	0x3ee540e0	0.44776058
184	0xbf064028	-0.52441645
185	0xbf26a2d5	-0.6509221
186	0xbe4dbd9c	-0.20091861
187	0xbee0406a	-0.43799144
188	0xbd2f4a39	-0.042795394
189	0x3e90388c	0.28168142
190	0x3d13a1ad	0.036042858
191	0xbed61151	-0.41810086
192	0x3ecd4ea9	0.40099075
193	0xbe902753	-0.28155002
194	0xbe797118	-0.24359548
195	0x3e1db76d	0.15402003
196	0x3d9ce212	0.07660307
197	0xbe5947af	-0.21218751
198	0x3d220baa	0.039561905
199	0xbc9685c1	-0.018374326
200	0xbe3ab4bf	-0.18233012
201	0xbe49150e	-0.19636938
202	0x3e645e83	0.22301678
203	0xbe55fc79	-0.20897092
204	0xbe174188	-0.14771092
205	0x3dd3796a	0.10325892
206	0xbc9306da	-0.017947603
207	0xbea7df22	-0.32787424
208	0x3e9d663e	0.30742067
209	0xbd8a503c	-0.06753585
210	0xbeddbadb	-0.43306622
211	0x3e8d8771	0.27642396
212	0x3e349309	0.17634214
213	0xbeff0d70	-0.4981494
214	0x3e95ac64	0.29233086
215	0x3d3d6932	0.0462429
216	0xbe41db0e	-0.18931219
217	0x3eba95e0	0.3644247
218	0x3e1d58a2	0.15365842
219	0xbdc714cd	-0.09720764
220	0x3d4399cf	0.047754105
221	0x3efeebad	0.4978918
222	0xbf132901	-0.5748444
223	0xbec940df	-0.39307305
224	0xbd686e1f	-0.056745645
225	0xbe432c88	-0.19059956
226	0x3e3d6fe0	0.18499708
227	0xbe9f7e16	-0.31150883
228	0x3e8147c2	0.2525006
229	0x3eb464b2	0.35233074
230	0xbdb386df	-0.08765959
231	0xbe019c08	-0.12657177
232	0x3d481265	0.048845667
233	0x3dad0e96	0.08450048
234	0xbe9128ea	-0.28351527
235	0xbe22536a	-0.15852132
236	0xbe8f3a3c	-0.27974117
237	0x3ed4e854	0.41583502
238	0xbe70e20a	-0.23523727
239	0xbee23d17	-0.44187233
240	0xbd842cb0	-0.06453836
241	0x3ed3bfd1	0.41357282
242	0x3f0eb15a	0.55739367
243	0x3ebb6aa1	0.3660479
244	0x3d506090	0.05087334
245	0xbe81991a	-0.2531212
246	0xbc80e6ec	-0.015735112
247	0x3e11e42e	0.142472
248	0xbe6ab049	-0.2291881
249	0xbeb563f8	-0.35427833
250	0xbdb694af	-0.08915078
251	0xbe7b90b5	-0.2456692
252	0xbefac09c	-0.48975074
253	0xbf0bd696	-0.5462431
254	0x3da2ab64	0.079428464
255	0xbed2f2dd	-0.41200915

bias f4 [32]
0	0xbe8441ec	-0.25831544
1	0xbe2619ab	-0.16220729
2	0x3e226d98	0.15862119
3	0xbdf709a7	-0.12062388
4	0xbe461ef0	-0.19347739
5	0xbe112d1b	-0.14177363
6	0xbd89226c	-0.066960186
7	0xbe0180b8	-0.12646759
8	0xbe924234	-0.28566134
9	0xbcbd27c4	-0.02309025
10	0xbe9d6b15	-0.3074576
11	0x3eef1263	0.46693715
12	0x3e7ba12b	0.245732
13	0xbe095f36	-0.13415226
14	0xbc182ec7	-0.009288496
15	0x3c7589de	0.014986483
16	0xbcc874de	-0.02446979
17	0xbf2b6101	-0.6694489
18	0xbe09746a	-0.13423315
19	0xbe137b37	-0.14402471
20	0xbc466883	-0.0121098785
21	0xbd4a46c8	-0.04938391
22	0xbd605ba3	-0.05477489
23	0x3d056202	0.03256417
24	0xbd29b556	-0.0414327
25	0xbe1b641e	-0.1517491
26	0xbd36e61b	-0.04465304
27	0xbd176f59	-0.036971424
28	0xbe981b73	-0.29708442
29	0xbe6b25e4	-0.22963673
30	0xbe463443	-0.19355874
31	0x3d6fe3d3	0.05856688

weight f4 [64, 32, 3, 3]
0	0xbda0cf58	-0.07852048
1	0x3d91322e	0.07089649
2	0x3bc036e3	0.005865918
3	0x3c24649b	0.010033752
4	0xbdc061d2	-0.09393658
5	0xbdad6a61	-0.08467556
6	0x3cc8b56b	0.02450057
7	0x3e116990	0.14200425
8	0x3c2a33e4	0.010388348
9	0xbda7ab86	-0.081870124
10	0xbb407724	-0.0029367888
11	0x3e18f06c	0.14935464
12	0xbd844907	-0.06459241
13	0xbd2d2899	-0.042275045
14	0xbce6cb4a	-0.028173108
15	0x3ca46146	0.020065915
16	0x3d2279cf	0.039666947
17	0xbc8b57cd	-0.01700964
18	0x3ccbdf7f	0.024886845
19	0xbd965f13	-0.07342353
20	0xbd8804a9	-0.06641514
21	0x3c0a86d6	0.008454999
22	0xbd345b58	-0.044032425
23	0x3c280ea7	0.0102574
24	0xbdd491c2	-0.103793636
25	0xbd0b992e	-0.03408163
26	0xbcd62c46	-0.026144158
27	0x3d12fe85	0.03588726
28	0xbcb45cb2	-0.022016857
29	0x3c2d916c	0.010593753
30	0x3d77dcdc	0.060513362
31	0xbd8c4c15	-0.06850449
32	0x3c54bbdd	0.012984243
33	0xbc6f65bb	-0.014611657
34	0xbce223d9	-0.027604984
35	0x3d7b6dea	0.06138412
36	0xbd56febe	-0.052489035
37	0xbd97fc1b	-0.07421132
38	0xbc29e12d	-0.0103686275
39	0xbd746846	-0.059669755
40	0x3cf03501	0.02932215
41	0xbd332d9d	-0.043744672
42	0xbcc3cc99	-0.02390127
43	0xbcc183a2	-0.023622338
44	0xbbeab8e4	-0.007163154
45	0x3c962888	0.018329874
46	0xbdd4c696	-0.1038944
47	0xbdc5d9ca	-0.096606806
48	0x3e02a459	0.12758006
49	0x3e60919d	0.21930547
50	0x3da7b9af	0.08189713
51	0x391f7df8	0.00015210349
52	0x3c9fabac	0.01949104
53	0x3d4e7872	0.050407834
54	0xbd351fb0	-0.044219673
55	0xbd534a48	-0.051584512
56	0xbd20ed9c	-0.039289102
57	0x3d5b992d	0.053612877
58	0xbc09487a	-0.008379096
59	0xbd3e1152	-0.046403237
60	0xbbe9ba22	-0.0071327845
61	0x3cd023a1	0.025407614
62	0x3d022081	0.03176928
63	0xbd947ab4	-0.07249966
64	0xbbd5a124	-0.0065194536
65	0x3c9449ed	0.018101657
66	0xbc80f3b3	-0.015741205
67	0x3d9414ce	0.07230531
68	0x3d2e179c	0.042502984
69	0x3d47a4a2	0.04874099
70	0x3c9dd367	0.019265844
71	0x3cec6b4e	0.02885976
72	0xbd33a3bc	-0.04385732
73	0xbd103239	-0.035204146
74	0xbca5998a	-0.020214815
75	0xbd7dc781	-0.06195784
76	0x3c5d26c3	0.013498011
77	0x3b5008a2	0.0031743427
78	0x3d0b3448	0.033985406
79	0x3d8d24f6	0.06891815
80	0xbc21cd22	-0.009875568
81	0xbdae5caa	-0.08513768
82	0xbd946b6b	-0.07247051
83	0xbd15e25d	-0.03659283
84	0x3d404f47	0.046950605
85	0x3d80ac8a	0.06282909
86	0xbd929214	-0.071567684
87	0xbb6aee3e	-0.003584757
88	0x3d0c6e3d	0.03428482
89	0x3d83410c	0.06408891
90	0x3c97c292	0.018525396
91	0x3d23ad3e	0.03996014
92	0xbd196494	-0.037449434
93	0xbbf74e9e	-0.0075472137
94	0xbd277b2f	-0.04088896
95	0xbd6a932a	-0.057269253
96	0xbb76ddc4	-0.0037668804
97	0xbd168c8b	-0.036755126
98	0x3cba9afd	0.022778982
99	0x3cd6a3d6	0.02620117
100	0xbdbd1855	-0.092331566
101	0xbdd1edbc	-0.10250422
102	0xbd7edad5	-0.062220413
103	0xbb9887c5	-0.004654857
104	0xbde80be9	-0.11330397
105	0xbcdd32d1	-0.02700177
106	0xbdc5b2e8	-0.09653264
107	0xbdb7d8e1	-0.08976913
108	0x3d610c97	0.054943647
109	0xbd3a4119	-0.04547224
110	0xbdda5b42	-0.10661937
111	0xbd24b642	-0.040212877
112	0xbd0978e5	-0.03356256
113	0xbc33d7a4	-0.010976706
114	0xbc8953b4	-0.016763546
115	0x38e15389	0.00010744396
116	0xbda7b65b	-0.081890784
117	0xbd5a7c37	-0.053341117
118	0xbdcf0c24	-0.101097375
119	0xbd810630	-0.06300008
120	0x3d7c74a3	0.06163467
121	0x3d3c3778	0.045951337
122	0x3bdfe02f	0.0068321447
123	0xbd26d528	-0.040730625
124	0xbbdb88e4	-0.0066996682
125	0x3cefd3a5	0.029275725
126	0x3d23fc39	0.04003546
127	0x39e58c25	0.000437827
128	0x3d30b054	0.04313691
129	0xbd883fb2	-0.06652774
130	0xbd9458a2	-0.07243468
131	0xbbe72fa2	-0.007055239
132	0x3d888ee6	0.06667881
133	0xbc9f4513	-0.019442117
134	0xbdbd9592	-0.09257044
135	0xbd85bc24	-0.065300256
136	0xbd9be775	-0.07612506
137	0xbb3c1dc3	-0.0028704263
138	0x3d7b5c10	0.061367095
139	0xbd0dd358	-0.03462538
140	0xbdd87823	-0.10569789
141	0xbd0333ff	-0.03203201
142	0xbb0b4f30	-0.0021256916
143	0x3da2eaaa	0.07954915
144	0x3bafd525	0.005365985
145	0x3d69ce0e	0.057081275
146	0x3d8f14ca	0.06986387
147	0xbd215fd5	-0.039398033
148	0xbdb92e6a	-0.09042056
149	0xbb84cc2e	-0.0040526604
150	0xbc96664f	-0.018359331
151	0xbd71660f	-0.05893522
152	0xbcbe180b	-0.023204824
153	0xbdcdba2b	-0.10045274
154	0xbd9adffb	-0.07562252
155	0x3da8771e	0.08225845
156	0xbd19d40d	-0.037555743
157	0xbdc968a9	-0.098344155
158	0xbe1a8e91	-0.15093447
159	0xbb8bd912	-0.00426782
160	0xbd7474ec	-0.059681818
161	0x3d9ab398	0.07553786
162	0x3ccf249a	0.025286008
163	0x3d4b9e75	0.049711663
164	0x3de5a7ca	0.11213644
165	0xbdc6059f	-0.09669041
166	0x3d55f7f5	0.052238423
167	0x3d882733	0.06648102
168	0xbd8793bd	-0.06619976
169	0x3ce749d2	0.028233442
170	0xbd2ca52c	-0.042149708
171	0x3d1a714d	0.03770571
172	0x3d59b837	0.053154197
173	0xbcc8cb64	-0.024511047
174	0xbd34f106	-0.04417517
175	0xbc9f025d	-0.019410307
176	0xbd58566e	-0.0528168
177	0x3d347047	0.04405239
178	0x3c322607	0.010873324
179	0x3cd8298a	0.026386995
180	0xbe1c094f	-0.15237926
181	0xbd6a6933	-0.057229232
182	0xbd268b41	-0.040660147
183	0xbdc7d133	-0.097566985
184	0xbd86507c	-0.0655832
185	0xbc8af783	-0.016963726
186	0xbdbbf1a6	-0.0917695
187	0xbdf2d908	-0.11857802
188	0xbe054a31	-0.13016583
189	0xbde2e32b	-0.11078485
190	0xbb3c0d58	-0.0028694477
191	0xbd3fe6e5	-0.046851058
192	0x3c5ccf67	0.013477183
193	0x3c17e11e	0.009269981
194	0xbd00380c	-0.03130345
195	0xbcca9d91	-0.024733337
196	0x3ce20afc	0.027593128
197	0xbd578660	-0.052618384
198	0x3d250e75	0.04029699
199	0x3c65f533	0.014035511
200	0x3caa8956	0.02081744
201	0x3c39afff	0.011333465
202	0x3d5f8bf1	0.054576818
203	0x3ca924e5	0.020647475
204	0xbcd88334	-0.02642975
205	0x3d373422	0.044727452
206	0xbc5dfd5b	-0.013549174
207	0xbc339387	-0.010960466
208	0xbd0084e7	-0.031376746
209	0x3c36005c	0.011108484
210	0xbd385734	-0.04500504
211	0xbd0d2444	-0.034458414
212	0xbb532f3d	-0.00322242
213	0xbda0e6c4	-0.07856515
214	0xbc7e1aad	-0.01550929
215	0xbc6aa6b2	-0.01432197
216	0xbc86ee1c	-0.016470961
217	0x3d043a8d	0.0322824
218	0x3d9bd101	0.07608224
219	0xbd06355a	-0.032765724
220	0xba6fabd4	-0.0009142731
221	0x3db21f3a	0.08697362
222	0x3d85c05c	0.0653083
223	0x3cf2571c	0.029582553
224	0xbd5cfef7	-0.05395409
225	0xbdd5be5a	-0.10436697
226	0x3ca5d796	0.020244401
227	0x3d805d70	0.06267822
228	0x3d19657f	0.03745031
229	0xbd2cb89b	-0.04216824
230	0xbc58df47	-0.013236827
231	0x3d83a43b	0.06427809
232	0xbc515d0b	-0.012778531
233	0x3d42d1b3	0.047563266
234	0xbd992a1d	-0.074787356
235	0xbdb72944	-0.08943418
236	0xbca3d55e	-0.019999202
237	0x3e0f6974	0.14005071
238	0x3c70e9cd	0.01470418
239	0x3c56a2e3	0.013100359
240	0x3b753d42	0.0037420546
241	0x3dc9e2fb	0.09857746
242	0x3d451520	0.04811585
243	0xbb9f2d63	-0.0048577054
244	0x3b826da5	0.003980356
245	0xbd095d95	-0.033536512
246	0xbc6aaa31	-0.014322803
247	0xbcc8e90f	-0.024525193
248	0x3ca36a4e	0.019948151
249	0x3c961dc3	0.018324738
250	0x3cf7248b	0.030168792
251	0xbd68ed5a	-0.05686698
252	0xbd0b3a59	-0.03399119
253	0xbdb426ea	-0.08796485
254	0x3d7cb686	0.061697505
255	0x3d731e66	0.059355162

bias f4 [64]
0	0xbd4a9191	-0.04945523
1	0xba963c3c	-0.0011462043
2	0x3c938650	0.018008381
3	0xbce68c1f	-0.028142987
4	0xbd984080	-0.074341774
5	0xbd0dac27	-0.034588005
6	0xbdeae878	-0.11470121
7	0xbe5bf982	-0.21481898
8	0xbd6e22b8	-0.05813858
9	0xbe687d4b	-0.22704045
10	0xbd303474	-0.043018773
11	0xbd377483	-0.04478885
12	0xbd49ce17	-0.04926881
13	0xbd943e08	-0.07238394
14	0xbdb2819a	-0.08716126
15	0xbd8ce7a1	-0.06880117
16	0xbde8ebba	-0.11373086
17	0xbd28d611	-0.041219775
18	0xbd4e1625	-0.050314087
19	0xbd37e783	-0.04489852
20	0xbd97166c	-0.073773235
21	0xbd3409c0	-0.04395461
22	0x3c793a7a	0.015211696
23	0xbd248b0e	-0.040171675
24	0xbda56e3b	-0.080776654
25	0xbd20ab05	-0.039225597
26	0xbd29ee91	-0.04148728
27	0xbd404101	-0.046936993
28	0xbe198c17	-0.14994846
29	0xbcd739b4	-0.026272632
30	0xbcfe4cad	-0.031042421
31	0xbdf201ce	-0.118167505
32	0xbdea4adb	-0.11440059
33	0xbe8287ba	-0.25494176
34	0xbd71b0ce	-0.059006505
35	0xbd4ee0fd	-0.050507534
36	0xbdb790f2	-0.08963193
37	0xbc141760	-0.009038776
38	0xbd438f97	-0.04774436
39	0xbd5a22da	-0.053255893
40	0xbd2192e2	-0.03944672
41	0xbd8be7c7	-0.068313174
42	0xbe5715a6	-0.21004352
43	0xbd2d1f10	-0.04226595
44	0xbd31b705	-0.04338743
45	0xbdb631e2	-0.08896233
46	0x3d17a6d9	0.037024353
47	0xbba1e412	-0.004940518
48	0xbc80cfba	-0.015724052
49	0xbe2623d8	-0.16224611
50	0xbd20dddc	-0.03927408
51	0x3ca61a50	0.020276219
52	0xbd9326f7	-0.07185166
53	0xbe32376b	-0.17403953
54	0xbdd0a16a	-0.10187037
55	0xbd1dd394	-0.038531855
56	0xbd3de4b1	-0.046360675
57	0xbe66378b	-0.22482125
58	0xbcf9139c	-0.030404858
59	0xbd47171b	-0.04860602
60	0xbbcc0791	-0.006226488
61	0xbe53a06f	-0.2066667
62	0xbd8c7866	-0.06858902
63	0xbd04fce4	-0.032467738

weight f4 [128, 1600]
0	0xbcd2eab6	-0.025746685
1	0x3b2039e6	0.0024448573
2	0x3d6dc52b	0.058049362
3	0x3caa05cc	0.020754717
4	0x3d1b9255	0.03798135
5	0x3c1d785e	0.009611217
6	0xbcb38dd3	-0.021918213
7	0xbcb1fd00	-0.021727085
8	0xbb28ce1b	-0.0025757614
9	0x3c84b3f3	0.016199088
10	0xbc93eab4	-0.018056251
11	0xbc940f4c	-0.0180737
12	0xbbaf4d5f	-0.0053497995
13	0x3ce11398	0.027475163
14	0x3cef1600	0.029185295
15	0x3be75b92	0.0070604766
16	0x3d427842	0.047477968
17	0x3d373545	0.044728536
18	0x3c52bf8a	0.012863049
19	0x3cb94e4f	0.022620348
20	0xbbdd3bdc	-0.0067515206
21	0x3a904066	0.001100552
22	0x3c816943	0.015797263
23	0x3aa6c948	0.0012724781
24	0x3b9925bd	0.004673688
25	0xbc873777	-0.01650594
26	0x3b015239	0.0019732846
27	0x3b27ea05	0.0025621664
28	0x3c997026	0.018730234
29	0xbcc19b91	-0.02363375
30	0xbca36d60	-0.019949615
31	0xbbefec04	-0.0073218364
32	0x3bc29540	0.005938202
33	0x3d076ec0	0.033064604
34	0x3a8fccef	0.0010971109
35	0xbc12a84a	-0.008951256
36	0xbce11a6a	-0.027478416
37	0x3ce50aba	0.027959216
38	0x3d2bda3e	0.04195618
39	0x3d0a1d3b	0.033719283
40	0xbcefd0d3	-0.02927438
41	0xbc0489e0	-0.008089513
42	0x3ca40d5c	0.020025901
43	0xbbde0af6	-0.006776209
44	0x3b2acbef	0.0026061495
45	0x3c6e4e7d	0.01454508
46	0xbc1728aa	-0.009226004
47	0x3d48550b	0.04890923
48	0x3c631c20	0.013861686
49	0xbd028196	-0.031861864
50	0xbbda1ba1	-0.0066561257
51	0xbb2557fc	-0.0025229445
52	0x3ce78dfa	0.028265942
53	0xbc965d5d	-0.018355066
54	0xbbc852eb	-0.0061134
55	0xbc979fa1	-0.018508734
56	0xbc613c5a	-0.013747299
57	0x3c5fbb3e	0.013655482
58	0xbb358420	-0.002769716
59	0xbbe98508	-0.0071264543
60	0xbc95c59f	-0.01828271
61	0xbafc8adc	-0.0019267458
62	0x3c19a0e1	0.009376735
63	0x3c86fc1b	0.016477635
64	0xbc8e12ba	-0.017342914
65	0xbc6b497c	-0.014360782
66	0x3b508f5e	0.0031823735
67	0xbc93b898	-0.018032357
68	0x3cb17bb4	0.021665432
69	0xbc7c93c9	-0.015416094
70	0x3cab3626	0.020899843
71	0xbcaab8b0	-0.020840019
72	0x3bda092f	0.006653927
73	0x3bf682fc	0.007522939
74	0xbc41a938	-0.01182013
75	0xbc8e0ccd	-0.017340088
76	0xbcd93914	-0.026516475
77	0xbcdf58f3	-0.027264094
78	0xbd96ddd3	-0.07366528
79	0xba77e84f	-0.0009456919
80	0x3ce0ba25	0.02743251
81	0xbc53fe2b	-0.012939016
82	0x3c5bb4c3	0.013409796
83	0xbd68084b	-0.056648534
84	0xbb28e3f9	-0.0025770648
85	0x3c264253	0.010147649
86	0x3d0884c4	0.03332974
87	0x3d67e070	0.056610525
88	0x3ca98877	0.020694954
89	0xbbb57ec5	-0.0055387937
90	0x3bf96347	0.0076107117
91	0xbd6cf0aa	-0.057846703
92	0x3b12d668	0.0022405628
93	0x3cabc751	0.020969065
94	0x3c0ddbaf	0.008658334
95	0x3ccaee6b	0.02477189
96	0xbd2012e7	-0.039080527
97	0xbc566966	-0.013086652
98	0xbd01735a	-0.03160415
99	0x3c9a49f4	0.018834092
100	0x3c92c8f4	0.017918088
101	0x3cfd88a7	0.03094895
102	0x3d6832d2	0.05668909
103	0x3d53cbaf	0.05170792
104	0x3c3490ee	0.011020882
105	0xbca17f41	-0.019714
106	0xbbe0ee15	-0.006864319
107	0x3d805d24	0.06267765
108	0x3d596442	0.05307413
109	0xbbf608e7	-0.0075083855
110	0x3bcac6cc	0.006188249
111	0xbc8d31bb	-0.017235627
112	0xbcfe9594	-0.031077184
113	0x3c67f4c4	0.014157478
114	0xbb0ae068	-0.0021190885
115	0xbc3ec564	-0.011643741
116	0xbbde1865	-0.0067778104
117	0xbc8a56a8	-0.016887024
118	0x3c824a4d	0.01590457
119	0xb9da9c97	-0.0004169687
120	0x3caa3697	0.020777984
121	0x3dbeb176	0.09311192
122	0x3ce943b0	0.028474659
123	0x3bf92d75	0.007604296
124	0xbd1180c7	-0.035523202
125	0xbbe175af	-0.006880484
126	0xb92bfe5e	-0.0001640259
127	0x3d1303a9	0.035892162
128	0x3cbf1db3	0.023329591
129	0xbcbe466d	-0.023226941
130	0xbcdd3965	-0.027004907
131	0x3bd6e3b4	0.006557906
132	0x3cf93083	0.03041864
133	0xba86554b	-0.0010248808
134	0x3b0cdfc3	0.0021495677
135	0xbced8bde	-0.028997358
136	0x3c8425d0	0.016131312
137	0x3da61be4	0.081107885
138	0x3d117154	0.03550847
139	0x3cedce99	0.029029178
140	0xbcfe3d6a	-0.031035144
141	0x3d08ec22	0.03342832
142	0x3c27895a	0.010225618
143	0xbb327b31	-0.0027234072
144	0xbc18086d	-0.009279353
145	0xbb835891	-0.0040083607
146	0x3d0435d5	0.0322779
147	0xbd1b706a	-0.037949003
148	0x3c9cf945	0.01916183
149	0xbca9daa8	-0.020734146
150	0xbc82e16a	-0.015976626
151	0xbad782eb	-0.0016442215
152	0xbce55d96	-0.027998727
153	0x3c6b8f60	0.014377445
154	0x3c94eb65	0.018178651
155	0x3c9ff17c	0.019524328
156	0x3b532443	0.0032217659
157	0x3d222b0e	0.03959184
158	0x3b8604e9	0.004089941
159	0x3b22b20d	0.0024825365
160	0xbbeb2e26	-0.007177132
161	0x3d16526e	0.036699705
162	0x3ab5928d	0.001385288
163	0x3c426e18	0.011867069
164	0xbc19de7f	-0.009391426
165	0xbc7300e5	-0.014831756
166	0xbcdb424d	-0.026765013
167	0xbbde64ba	-0.00678691
168	0xbd1e7e0f	-0.038694438
169	0xbc1f4a62	-0.009722324
170	0x3b3078aa	0.002692739
171	0xbca81282	-0.020516638
172	0xbad708d2	-0.0016405827
173	0x3babe0a3	0.0052452846
174	0xbc748b3b	-0.014925773
175	0x3aa0f1e9	0.0012279126
176	0x3ca08a13	0.019597089
177	0x3d39c74e	0.045356087
178	0x3def5235	0.116856016
179	0x3bcb0747	0.006195936
180	0x3b3e56ab	0.0029043357
181	0x3d6e1a4f	0.05813056
182	0x3d65cab0	0.0561015
183	0x3ce8ecff	0.028433321
184	0x3c1d204f	0.0095902225
185	0xb8d163ca	-9.984484e-05
186	0xbc937d55	-0.018004099
187	0xbaf666ca	-0.0018798944
188	0xbd3d3998	-0.046197504
189	0x3ba68d9e	0.0050828
190	0xbcd42966	-0.025898647
191	0xbbddb994	-0.0067665074
192	0xbc5d3087	-0.013500339
193	0xbc4c03b2	-0.012452053
194	0x3d12b722	0.03581918
195	0xbbc276ac	-0.005934557
196	0x3be41153	0.006960073
197	0xbd8c4bb8	-0.0685038
198	0x3c34cb96	0.011034867
199	0xbc1ed01f	-0.009693175
200	0x3c1c05fc	0.009522911
201	0xbcd50340	-0.026002526
202	0x3ceb36f7	0.028712733
203	0x3c172da5	0.009227191
204	0x3c9628f3	0.018330073
205	0x3afdc51c	0.0019361111
206	0x3c9fa7b5	0.019489149
207	0xbd0e3285	-0.034716148
208	0xbd0fefd0	-0.035140812
209	0xbcac80a2	-0.02105743
210	0xbae99bf4	-0.0017822967
211	0xbc85c8de	-0.016331133
212	0x3c1441ff	0.009048938
213	0xbb46cc3c	-0.0030334136
214	0x3cd873be	0.026422378
215	0x3c0012a9	0.007816949
216	0x3d2f10a1	0.042740468
217	0x3d618e6a	0.055067457
218	0x3cbbd0e3	0.022926753
219	0xbcdacf16	-0.026710074
220	0x3cab2d41	0.020895602
221	0x3d367b25	0.044551034
222	0x3cd82efd	0.026389593
223	0x3c2ad57a	0.010426873
224	0xbc88a476	-0.016679984
225	0xbd0c0ebd	-0.034193743
226	0x3d5962b5	0.05307265
227	0x3d4e2d81	0.050336365
228	0x3d973a9d	0.073842265
229	0x3cb8381e	0.022487696
230	0xbcdc9f33	-0.02693138
231	0x3c9f8cb2	0.019476268
232	0xbd3dc7d8	-0.046333164
233	0x3d28b042	0.041183718
234	0x3d5bb421	0.05363858
235	0xbcc0d0b9	-0.023537027
236	0xbd93a0fc	-0.0720844
237	0xbcc0a18e	-0.023514535
238	0x3d2ca3b1	0.042148296
239	0xbc8bb739	-0.01705514
240	0x3c0914cc	0.008366775
241	0xbcd58f2e	-0.02606925
242	0x3d686395	0.056735594
243	0xbb571d67	-0.0032823922
244	0xbdc44b4f	-0.095846765
245	0x3c0b756d	0.008511883
246	0xbc33bac5	-0.010969822
247	0xbd5d98ae	-0.054100685
248	0xbd0cc67c	-0.034368977
249	0xbd072049	-0.032989774
250	0xbc3d699c	-0.011560824
251	0xbc337c87	-0.010954983
252	0xbd18bc3c	-0.03728889
253	0xbc7d1925	-0.015447889
254	0x3bc73ff6	0.006080623
255	0x3c199905	0.009374862

bias f4 [128]
0	0xbd56138f	-0.052264746
1	0x3cf15633	0.029460048
2	0xbcc2d438	-0.023782834
3	0xbc7f4f72	-0.015582906
4	0xbcbcc75c	-0.02304428
5	0xbd466a0a	-0.04844097
6	0x3c66b8d4	0.014082152
7	0xbd542537	-0.051793303
8	0x3c7fc429	0.015610733
9	0x3d7df4fb	0.06200121
10	0xbcb5144d	-0.022104407
11	0x3c0f5a51	0.00874956
12	0x3d1f2599	0.038854215
13	0x3c2a8d8f	0.010409727
14	0xbd367d64	-0.044553176
15	0xbd8b7f54	-0.06811395
16	0xbd90ca39	-0.07069821
17	0xba813198	-0.0009856699
18	0xbd9bc825	-0.07606534
19	0xbca6c8f4	-0.020359494
20	0xbcdbda26	-0.02683742
21	0x3d30df13	0.04318149
22	0x3c56285e	0.013071148
23	0xbd52c982	-0.051461704
24	0xbc2561bc	-0.0100941025
25	0x3c3a07da	0.011354411
26	0x3ce50f02	0.027961258
27	0x3cc6d173	0.024269795
28	0xbd82cc81	-0.06386662
29	0x3d586b26	0.05283656
30	0x3c904a7c	0.017613642
31	0x3d801c05	0.06255344
32	0xbbe048b8	-0.0068446063
33	0xbd6cfb33	-0.05785675
34	0xbd36743e	-0.04454445
35	0xbd7ed7c6	-0.062217496
36	0x3d3dc948	0.046334535
37	0x3d037abc	0.03209947
38	0x3d64b9af	0.055841144
39	0x3cd66820	0.026172698
40	0x3cf4c12a	0.029877264
41	0xbd333b09	-0.043757472
42	0x3c0e9d43	0.008704486
43	0x3d998e7d	0.074978806
44	0x3ca24a82	0.019810919
45	0xbc1e8301	-0.009674788
46	0x3abcfd06	0.0014418669
47	0x3cc99a45	0.024609694
48	0x3d772185	0.0603347
49	0x3cc65e3e	0.02421486
50	0xbb5981d6	-0.003318896
51	0xbcd207d5	-0.0256385
52	0xbd782026	-0.060577534
53	0x3d24b31f	0.040209886
54	0x3d928b9d	0.07155535
55	0x3bee7eb3	0.0072782873
56	0x3ba4dd86	0.0050312905
57	0xbd446499	-0.0479475
58	0x3bd9f8cb	0.006651973
59	0x3ce2348c	0.027612947
60	0x3dae60bc	0.08514544
61	0x3c067739	0.008207136
62	0x3c69b86a	0.014265159
63	0xbc248341	-0.010041059
64	0xbcc68b69	-0.024236398
65	0xbd6a59e4	-0.057214633
66	0xbc7e114b	-0.015507053
67	0x3b5e49e9	0.0033918566
68	0xbd5fdd07	-0.054654147
69	0x3d190faf	0.037368473
70	0x3d4ac2a7	0.04950204
71	0xbd3b18c2	-0.045677908
72	0xbda241e7	-0.07922726
73	0x3d0475fe	0.03233909
74	0xbceba216	-0.028763812
75	0xbd77ed28	-0.060528904
76	0x3d270841	0.040779356
77	0xbcce0b3e	-0.025151845
78	0xbd569a0f	-0.052393015
79	0x3d10af36	0.035323344
80	0x3d13beac	0.03607051
81	0xbd0b8d8e	-0.034070544
82	0x3cde9fd1	0.027175816
83	0x3cced1d8	0.025246546
84	0x3ce04587	0.027376903
85	0x3cded0a7	0.027199103
86	0x3cccb56b	0.02498885
87	0x3d0e7aac	0.034784958
88	0xbbc295ba	-0.005938259
89	0xb9e8db2c	-0.00044413784
90	0x3d4fdfc9	0.050750528
91	0x3d075f56	0.033049904
92	0xbd01dce3	-0.031704795
93	0xbd110900	-0.035408974
94	0x3caffa66	0.021481704
95	0xbb944898	-0.0045252554
96	0x3cee3391	0.029077323
97	0x3d18fa32	0.03734798
98	0x3c5a88c7	0.013338274
99	0x3cdee876	0.027210455
100	0xbd547104	-0.051865593
101	0xbd6d5426	-0.05794158
102	0xbba47232	-0.005018496
103	0x3d814127	0.06311255
104	0x3a5d7ce1	0.00084490894
105	0x3cd73891	0.02627209
106	0xba721628	-0.0009234869
107	0x3d50cc90	0.050976336
108	0xbcd68f1e	-0.02619129
109	0x3d355407	0.044269588
110	0x3d1e5e98	0.03866443
111	0x3cde6121	0.027145924
112	0x3cf92b58	0.030416176
113	0xbca68046	-0.020324837
114	0x3c368385	0.011139755
115	0x3d2a0eea	0.04151813
116	0xbd8c703e	-0.06857346
117	0x3ce019ed	0.027356112
118	0xbb8c706d	-0.004285863
119	0xbd162115	-0.036652643
120	0xbd2d90d8	-0.042374462
121	0x3d299584	0.041402355
122	0x3ba78f39	0.005113509
123	0xbd3e0b06	-0.04639723
124	0xbd824045	-0.06359915
125	0x3695a55e	4.4597973e-06
126	0xbaa44d9b	-0.0012535335
127	0x3ccc9a57	0.024975939

weight f4 [10, 128]
0	0x3e30ee41	0.17278387
1	0xbe993db5	-0.2992989
2	0xbde03656	-0.10947864
3	0xbe5a3c26	-0.21312007
4	0xbe82afb4	-0.25524676
5	0xbe8f2c89	-0.27963665
6	0xbdecb3c6	-0.115577266
7	0xbee6eece	-0.4510407
8	0xbe51d796	-0.20492396
9	0x3e008799	0.12551726
10	0xbe6f93a6	-0.23396167
11	0xbdeef228	-0.116672814
12	0xbe2fbe69	-0.1716248
13	0xbe33f6db	-0.17574637
14	0x3e332e71	0.17498185
15	0xbe7ea4dc	-0.24867576
16	0xbe093bd7	-0.13401733
17	0x3d89e22a	0.067325905
18	0xbdf57dde	-0.11986898
19	0xbe394a7f	-0.18094824
20	0xbe72df71	-0.23718049
21	0x3d7604c2	0.06006313
22	0x3dde71a5	0.1086152
23	0xbd4119b3	-0.04714365
24	0x3e988892	0.29791695
25	0xbe8ea46d	-0.27859822
26	0xbe627aa4	-0.22117096
27	0xbe8b32d1	-0.27187207
28	0xbe3ba2f9	-0.18323888
29	0xbc0a888b	-0.008455406
30	0xba7c8c9e	-0.00096339907
31	0xbdcfdf56	-0.1015002
32	0xbe6bc929	-0.23025955
33	0x3e31144e	0.17292902
34	0xbd723ea5	-0.059141774
35	0xbe452801	-0.19253542
36	0x3defd5f2	0.11710729
37	0xbdfc272e	-0.123121604
38	0xbe0ad6b8	-0.13558471
39	0xbe40a19d	-0.1881165
40	0xbe1aba1d	-0.15110059
41	0x3e67f78f	0.2265303
42	0x3c878fc1	0.01654804
43	0xbd32b07b	-0.043625336
44	0x3e0eb51a	0.13936272
45	0x3e312e93	0.17302923
46	0x3ddb3c84	0.10704902
47	0xbea4d860	-0.3219633
48	0xbe293493	-0.16523962
49	0xbd8efdfb	-0.06982037
50	0xbd7d463a	-0.06183455
51	0xbe14ef58	-0.14544427
52	0xbe6f1915	-0.23349412
53	0x3e96bd3a	0.29441243
54	0x3e995f08	0.29955316
55	0xbe38c37d	-0.18043323
56	0xbe6db5c9	-0.23213877
57	0xbe30e5f1	-0.17275216
58	0x3e8575a1	0.26066306
59	0xbeac80ef	-0.3369212
60	0x3e24cb01	0.16093065
61	0xbe85d894	-0.26141798
62	0xbe4f879a	-0.20266572
63	0xbe41c04d	-0.18921013
64	0xbe852da2	-0.26011378
65	0xbd65495e	-0.05597817
66	0x3d017a90	0.031611025
67	0xbe3efc62	-0.18650964
68	0xbe441eb7	-0.19152342
69	0xb99a80a5	-0.00029469017
70	0xbe856279	-0.2605169
71	0x3dd9d787	0.10636812
72	0x3e01d92e	0.12680504
73	0x3db51237	0.08841365
74	0xbe0f3c4c	-0.13987845
75	0x3cf4fe5b	0.029906442
76	0x3d7050e1	0.058670882
77	0xbe02796a	-0.12741628
78	0x3e28b193	0.16473989
79	0xbe206050	-0.1566174
80	0x3e56b5e2	0.2096782
81	0xbe9cf81d	-0.30658045
82	0xbdf48744	-0.11939862
83	0xbe661fe1	-0.22473098
84	0x3e971edf	0.2951574
85	0xbd958353	-0.07300439
86	0x3d9dd176	0.07705967
87	0x3d57ebb2	0.05271501
88	0x3e86525d	0.26234713
89	0xbe111cf2	-0.14171198
90	0x3e4bf36b	0.19917075
91	0x3d2748ea	0.04084102
92	0xbe97de95	-0.29662004
93	0xbe361752	-0.17782333
94	0x3e70a2bd	0.2349958
95	0x3e3924d4	0.18080455
96	0x3e4567d3	0.19277887
97	0x3e225392	0.15852192
98	0xbe4eb84e	-0.20187494
99	0xbd3340a7	-0.04376283
100	0xbe647b34	-0.22312623
101	0xbe3ddfa6	-0.18542346
102	0x3e692ed3	0.22771768
103	0x3e597e3e	0.21239564
104	0x3de65c75	0.112481035
105	0x3e17ebbf	0.14836024
106	0xbdde8f8c	-0.10867223
107	0xbe29befb	-0.1657676
108	0xbe45ebee	-0.19328281
109	0xbe2efab1	-0.17087819
110	0xbe95898b	-0.292065
111	0xbe08303f	-0.13299654
112	0x3d9f3600	0.077739716
113	0x3e0c3a4b	0.13694112
114	0xbcb69cd9	-0.022291588
115	0xbdadc1a9	-0.08484203
116	0xbe5034e2	-0.20332673
117	0x3dccc06a	0.099976376
118	0x3e1510ed	0.14557238
119	0xbe704e6e	-0.23467419
120	0xbdd4e576	-0.10395329
121	0x3e38d198	0.18048704
122	0x3e7539b5	0.23947795
123	0x3e1c46c9	0.15261377
124	0x3e35f52c	0.17769307
125	0x3d927074	0.07150355
126	0xbe89ffe1	-0.26953033
127	0x3daf1b6c	0.08550152
128	0xbe67e5c6	-0.22646245
129	0x3e0bfdff	0.1367111
130	0xbcb60330	-0.022218317
131	0xbe6361a4	-0.22205216
132	0x3e5d08d8	0.21585405
133	0xbe08407c	-0.13305849
134	0x3e1380d1	0.14404608
135	0xbd431200	-0.047624588
136	0x3ea0172a	0.31267673
137	0x3e5a7969	0.21335377
138	0xbda14fd0	-0.07876551
139	0x3e0ca83d	0.13736053
140	0x3e664b23	0.224896
141	0x3e21685f	0.1576247
142	0xbe567a1c	-0.20945019
143	0xbe16a0db	-0.14709799
144	0xbe437823	-0.19088797
145	0x3d69bd25	0.057065148
146	0xbe0a81dd	-0.13526101
147	0x3e81e43f	0.2536945
148	0x3d2ba7f3	0.041908216
149	0x3d0201fa	0.031740166
150	0xbc64b522	-0.013959201
151	0xbe30550b	-0.17219941
152	0xbda16deb	-0.07882293
153	0x3e58d6ce	0.21175691
154	0x3e18eca2	0.14934018
155	0x3e654df7	0.22393022
156	0xbe09b978	-0.13449657
157	0x3e3d3da9	0.18480553
158	0xbd87aab1	-0.06624354
159	0x3eb257b6	0.34832543
160	0x3e431fb9	0.1905507
161	0xbe5bc286	-0.21460924
162	0xbe76332c	-0.24042958
163	0xbe887e1b	-0.2665871
164	0x3ddb2b82	0.10701658
165	0x3e31d6a0	0.17367029
166	0x3e9478bc	0.28998363
167	0x3e6b66b3	0.22988395
168	0x3e6e6b0d	0.23283024
169	0xbdff933e	-0.12479256
170	0x3e08a93d	0.1334581
171	0x3e829621	0.25505164
172	0xbcd5201f	-0.026016293
173	0xbe8e6ee5	-0.2781898
174	0xbde6e6d6	-0.11274497
175	0x3e69c85e	0.2283034
176	0x3ebbfcf5	0.36716428
177	0x3e4cf225	0.20014246
178	0x3dac34eb	0.08408531
179	0xbe5d3c18	-0.21604955
180	0xbe9aef9d	-0.30260935
181	0x3dc8422d	0.09778247
182	0x3e65fbe2	0.22459367
183	0x3dd0d4cf	0.1019684
184	0x3ead3185	0.33826843
185	0xbe8125ad	-0.25224057
186	0xbe317b98	-0.17332304
187	0x3dece9be	0.1156802
188	0x3e860fbb	0.26183876
189	0x3e4605a0	0.19338083
190	0x3e8a0293	0.2695509
191	0xbc94ed2b	-0.018179497
192	0x3cb6b34d	0.022302294
193	0xbe1b60ee	-0.15173694
194	0x3de04e9a	0.10952492
195	0x3de791a3	0.11307075
196	0x3cbd53ed	0.023111308
197	0x3e6e648f	0.23280548
198	0x3e6106f3	0.21975307
199	0xbe567724	-0.20943886
200	0xbea6549c	-0.32486427
201	0x3e2a249d	0.1661553
202	0x3cbc2fa3	0.022971934
203	0xbe961908	-0.29315972
204	0x3e21280a	0.1573793
205	0xbe34884b	-0.17630117
206	0xbe969953	-0.29413852
207	0x3e46d20f	0.19416068
208	0x3ead5631	0.3385482
209	0xbbcbd339	-0.006220248
210	0x3dae6f07	0.085172705
211	0x3e47bfa2	0.19506696
212	0xbdce34b2	-0.100686446
213	0x3dd8808a	0.10571392
214	0x3e4b9a93	0.19883184
215	0xbdbea079	-0.093079515
216	0xbe274a08	-0.16336834
217	0x3e9c7977	0.3056142
218	0x3e14f475	0.14546378
219	0x3cddd5eb	0.027079543
220	0xbe4142c7	-0.1887313
221	0xbe1c2666	-0.15249023
222	0x3ce084ac	0.027407013
223	0xbea29c47	-0.31759855
224	0xbe70540a	-0.23469558
225	0x3e646b33	0.22306518
226	0x3eb43c75	0.35202375
227	0x3e678354	0.22608691
228	0xbe8a7ecf	-0.27049872
229	0xbd195913	-0.037438463
230	0xbe0717ec	-0.13192719
231	0x3c8510dc	0.01624339
232	0x3ca99412	0.020700488
233	0x3a3a72d6	0.0007112449
234	0xbdcbbf65	-0.09948615
235	0x3e6a5d55	0.22887166
236	0x3e3ac18e	0.18237898
237	0x3e897e91	0.26854375
238	0x3e822d75	0.25425306
239	0x3dcdca5b	0.10048362
240	0x3e9a121b	0.30091938
241	0xbe068848	-0.13137925
242	0x3dc88716	0.097913906
243	0x3e31422c	0.17310399
244	0xbe4f0752	-0.20217636
245	0x3d4f5028	0.050613552
246	0x3dd072ba	0.10178132
247	0xbe4558f0	-0.19272208
248	0xbe3c52f6	-0.18391022
249	0x3e39b3af	0.1813495
250	0xbe550114	-0.20801193
251	0xbe05f824	-0.1308294
252	0xbe401f4c	-0.18761939
253	0x3e0ea025	0.13928278
254	0x3e383a3a	0.17990962
255	0x3d424763	0.04743136

bias f4 [10]
0	0xbd22c8ad	-0.03974216
1	0x3e46fda4	0.19432694
2	0x3d0108d4	0.03150256
3	0xbdae2bf6	-0.08504479
4	0xbdff56ab	-0.124677025
5	0xbd1b09fb	-0.037851315
6	0xbe540354	-0.20704395
7	0x3c6bec01	0.014399529
8	0x3e193917	0.14963184
9	0x3c60c7f2	0.013719546
